best_model.pth (torch, 48228 bytes, 7 tensors)

fc1.weight f4 [128, 6]
0	0x3c999e11	0.01875213
1	0xbf0cd1c3	-0.5500757
2	0xbde178b0	-0.110093474
3	0x3e7b226b	0.24524848
4	0x3c8bd523	0.017069405
5	0xbc9b35df	-0.018946586
6	0xbd1b312c	-0.03788869
7	0xbe909c31	-0.28244165
8	0x3e6f40c1	0.23364545
9	0xbc990946	-0.01868118
10	0x3e733699	0.23751296
11	0x3e51b618	0.2047962
12	0x3dead986	0.114672706
13	0x3e43ad58	0.19109094
14	0x3d379ac3	0.044825327
15	0xbdf82c96	-0.12117879
16	0xbe89f94e	-0.26948017
17	0x3c219e57	0.009864411
18	0xbd289664	-0.04115905
19	0xbf0fd9ec	-0.561919
20	0xbd133482	-0.035938747
21	0xbd29c645	-0.04144885
22	0xbe62ab20	-0.22135592
23	0x3e5a10ce	0.21295473
24	0x3c1f4aa1	0.009722383
25	0xbed580ee	-0.41699928
26	0x3e0c0dc2	0.13677123
27	0xbe842402	-0.25808722
28	0xbdb1110f	-0.08645832
29	0x3eaa69a9	0.33283737
30	0x3d7d5905	0.061852474
31	0xbeae135e	-0.3399915
32	0x3c76efc0	0.015071809
33	0x3dd1b907	0.10240369
34	0x3b4f5427	0.0031635852
35	0xbcd94ca0	-0.026525795
36	0x3e94549c	0.28970802
37	0xbee966e3	-0.4558631
38	0x3de8d3f3	0.11368551
39	0xbc85a42c	-0.016313635
40	0xbe858af8	-0.26082587
41	0x3e2565a9	0.16152062
42	0x3e710401	0.23536684
43	0xbee7c4a3	-0.4526721
44	0xbe37d2b4	-0.1795147
45	0xbe2c88c0	-0.16849041
46	0xbe0677b3	-0.13131599
47	0x3e2be6d5	0.16787274
48	0x3e496692	0.19668034
49	0x3ee90f8a	0.45519668
50	0xbe9f4c6e	-0.31113
51	0x3ebd289e	0.3694505
52	0x3dfcb462	0.12339093
53	0xbe340406	-0.1757966
54	0x3c588737	0.0132158315
55	0xbf344f6b	-0.7043368
56	0x3d81d980	0.06340313
57	0x3e66e95e	0.2254996
58	0x3e0d81a8	0.13818991
59	0xbe376b95	-0.17912133
60	0x3ca644ab	0.020296415
61	0xbf151281	-0.5823136
62	0x3d5e0693	0.05420549
63	0xbe49efab	-0.19720332
64	0xbdd8aea0	-0.10580182
65	0x3d9443e2	0.0723951
66	0xbeb3617c	-0.35035312
67	0x3ec82fce	0.39098972
68	0x3e373390	0.17890763
69	0xbe0aecf3	-0.13566951
70	0xbde671d3	-0.11252179
71	0x3d1a02cc	0.037600324
72	0x3e127dda	0.14305821
73	0xbec870b7	-0.39148495
74	0x3e260c5c	0.16215652
75	0x3c523fb3	0.01283257
76	0x3e41984c	0.18905753
77	0xbe98e5ff	-0.29862973
78	0xbe2ef367	-0.17085038
79	0x3eb5869b	0.35454258
80	0x3d539fbf	0.051666018
81	0x3dddced0	0.10830462
82	0xbd21ec87	-0.03953221
83	0x3d52b511	0.05144221
84	0x3e69f28d	0.22846432
85	0xbec3c47f	-0.38235852
86	0xbd069450	-0.032856286
87	0xbd9556bd	-0.07291935
88	0xbc99277f	-0.018695591
89	0x3d2f91a2	0.042863496
90	0xbd9333b0	-0.07187593
91	0xbecf97dc	-0.40545547
92	0xbd76729e	-0.0601679
93	0xbe46bf16	-0.19408831
94	0x3e0005cb	0.1250221
95	0xbe16ef54	-0.14739734
96	0x3cc95063	0.024574464
97	0xbf0f538c	-0.5598686
98	0x3d4ec565	0.05048122
99	0xbdc0b5d0	-0.09409678
100	0xbc802858	-0.015644237
101	0xbbed9ebc	-0.0072515886
102	0xbe87d068	-0.2652619
103	0x3ec62cdd	0.38706103
104	0x3dff6383	0.12470152
105	0x3ec992f9	0.39369944
106	0x3e9e239b	0.3088654
107	0x3eea7581	0.45792773
108	0xbe389b95	-0.180281
109	0xbea819f8	-0.32832313
110	0x3e81e21f	0.2536783
111	0xbecd92c7	-0.40151045
112	0x3d0a7c02	0.03380967
113	0x3da389fd	0.079853036
114	0xbdebb4c9	-0.115090914
115	0x3f006bef	0.50164694
116	0x3e8284c1	0.25491908
117	0x3e049d50	0.12950635
118	0x3def37c2	0.11680557
119	0xbe9e88c7	-0.30963728
120	0x3d032001	0.032012943
121	0xbf22a57e	-0.6353377
122	0xbd445aeb	-0.04793827
123	0x3daf82ba	0.08569856
124	0x3e7fd5f4	0.2498396
125	0xbe870c7c	-0.26376712
126	0x3cde0ce5	0.027105758
127	0xbeebf026	-0.46081656
128	0x3c19fab7	0.009398154
129	0xbe8e4e08	-0.27793908
130	0x3e6eaaf9	0.23307408
131	0xbe832351	-0.25612882
132	0xbd66fabf	-0.056391474
133	0xbe345e3d	-0.17614074
134	0x3d7ea11c	0.062165365
135	0xbdd8318a	-0.10556324
136	0x3e6cf923	0.23141913
137	0xbe0e2f35	-0.13885196
138	0xbd6c5879	-0.05770156
139	0xbe76d4fa	-0.24104682
140	0x3dbeaf8f	0.09310829
141	0xbde08993	-0.1096374
142	0xbe66bd3a	-0.22533122
143	0x3e776f6a	0.24163595
144	0xbe8d17c7	-0.27557203
145	0x3f117ec9	0.56834084
146	0x3a5e1361	0.00084715156
147	0x3e0873e3	0.13325457
148	0x3dcb484b	0.09925898
149	0xbe4064dc	-0.18788475
150	0xbdcceaa5	-0.100056924
151	0x3ee0c58d	0.4390072
152	0xbe16b3cd	-0.14717026
153	0x3e30f73c	0.17281812
154	0x3ee290a1	0.44250968
155	0x3eea136c	0.45717943
156	0xbc5735e0	-0.013135403
157	0xbeeac854	-0.45855963
158	0x3de527e8	0.11189252
159	0xbd8d5017	-0.069000416
160	0xbe01098d	-0.126013
161	0x3e467bd2	0.19383171
162	0x3d96caf8	0.07362932
163	0xbeaced1d	-0.33774653
164	0xbaa19b33	-0.0012329578
165	0xbe10164b	-0.14071004
166	0x3e6c57b4	0.23080331
167	0xbe676eee	-0.2260091
168	0x3e0434d6	0.1291078
169	0xbe69de07	-0.22838603
170	0x3e0fead7	0.14054428
171	0xbdedbf26	-0.11608724
172	0xbe3717f1	-0.17880227
173	0x3e4e576a	0.20150533
174	0x3d06200d	0.03274541
175	0xbece7eb2	-0.40331036
176	0x3e2515e2	0.16121629
177	0x3d15b98b	0.0365539
178	0xbd972a4c	-0.07381114
179	0x3e1f7c2d	0.15574713
180	0x3e558d7e	0.20854756
181	0x3df0f179	0.11764807
182	0x3e68741d	0.22700544
183	0xbde18954	-0.110125214
184	0x3eda8b25	0.42684284
185	0x3ea3e831	0.32013085
186	0x3dfa01ff	0.12207412
187	0x3e91ed1b	0.2850121
188	0xbdd329d8	-0.103107154
189	0x3e65021c	0.22364086
190	0x3c5fe5e8	0.013665654
191	0xbd6ce580	-0.057836056
192	0xbb0b90af	-0.0021295955
193	0x3efe4a8c	0.4966625
194	0x3e910b6a	0.2832902
195	0x3c9a47cb	0.018833062
196	0xbe199ff4	-0.15002424
197	0xbc49bfea	-0.012313822
198	0x3e04733b	0.12934582
199	0xbf3d1713	-0.73863333
200	0xbde95b93	-0.113944195
201	0x3d8a3a25	0.067493714
202	0xbd73e1ae	-0.059541397
203	0x3d727429	0.05919281
204	0x3def2912	0.116777554
205	0xbf05982f	-0.5218534
206	0x3d8b2e34	0.06795922
207	0xbeacdb78	-0.3376119
208	0x3deaf74b	0.11472949
209	0xbdfe2882	-0.1241007
210	0x3d7fc431	0.062442962
211	0xbee6953a	-0.45035726
212	0xbd44b589	-0.048024688
213	0x3e03cb8b	0.12870614
214	0xbe061170	-0.1309259
215	0x3dea27ce	0.114333734
216	0xbdc37135	-0.09543077
217	0x3e4e078e	0.2012007
218	0xbe1e308d	-0.15448208
219	0xbe975727	-0.2955868
220	0x3e995ce4	0.29953682
221	0xbb8bca83	-0.0042660846
222	0xbda0cedb	-0.078519545
223	0xbf266cdf	-0.65009874
224	0x3e2e9082	0.17047313
225	0x3e7aa753	0.24477892
226	0xbdf678d2	-0.120347634
227	0xbcebbe58	-0.028777286
228	0x3ca2813a	0.01983701
229	0xbeff97a2	-0.49920374
230	0x3d1050a8	0.03523317
231	0xbe8d0e8f	-0.2755017
232	0xbdb6d145	-0.08926634
233	0x3dbc8f86	0.092070624
234	0xbd922ad4	-0.07137075
235	0x3ea6ed8a	0.32603103
236	0xbe2c5ce0	-0.16832304
237	0xbe59243a	-0.21205226
238	0x3e1879f6	0.14890274
239	0xbe426a21	-0.18985797
240	0x3e8ee0bd	0.27905837
241	0xbea2ce1b	-0.3179787
242	0xbc3f09ce	-0.011660052
243	0x3c82991e	0.015942153
244	0xbe35740e	-0.17720053
245	0x3dad1e4a	0.08453043
246	0x3db34e22	0.08755137
247	0x3e1ec0c2	0.15503219
248	0xbed03b6e	-0.4067034
249	0x3e2eb074	0.17059499
250	0x3d799415	0.060932238
251	0x3e58be67	0.21166383
252	0xbe061626	-0.13094386
253	0xbe93b096	-0.28845662
254	0x3c1bdf17	0.009513638
255	0x3ec11140	0.37708473

fc1.bias f4 [128]
0	0xbdfc4a14	-0.12318817
1	0x3d7b77a7	0.061393406
2	0xbe974fef	-0.29553172
3	0xbf0ebee8	-0.5576005
4	0xbf04e1df	-0.5190715
5	0x3de9ce00	0.114162445
6	0x3dc7de1a	0.097591594
7	0xbdcf63c8	-0.10126454
8	0x3f1c1310	0.6096659
9	0xbebe0402	-0.37112433
10	0xbf0f11d9	-0.5588661
11	0xbd909fe0	-0.07061744
12	0x3d7f2247	0.06228855
13	0x3eb5b59c	0.3549012
14	0xbc9d99a1	-0.019238295
15	0xbed5dc6e	-0.41769737
16	0xbe303ce2	-0.17210725
17	0x3dfeb60d	0.12437067
18	0xbea5a62d	-0.32353345
19	0x3edeafc5	0.43493477
20	0xbea1c2c6	-0.31593913
21	0xbf1fb7db	-0.62389916
22	0x3ceb75b7	0.028742654
23	0xbd3c8720	-0.046027303
24	0x3ee48364	0.44631493
25	0x3e3073ca	0.1723167
26	0xbecddc4c	-0.40207136
27	0x3e85566b	0.26042494
28	0x3e3d782b	0.18502872
29	0x3e93a232	0.28834683
30	0xbe890136	-0.26758736
31	0x3ee2122a	0.44154483
32	0xbea5d9b6	-0.32392663
33	0xbee48878	-0.44635367
34	0xbebbd15c	-0.36683166
35	0xbe100f4f	-0.1406834
36	0xbd8d5976	-0.06901829
37	0x3ddabbd5	0.10680357
38	0xbf1a34c6	-0.60236776
39	0x3e3794b6	0.17927822
40	0x3e875a57	0.2643611
41	0xbed6c016	-0.41943425
42	0xbea74150	-0.32667017
43	0x3d2b8930	0.04187888
44	0x3dc2e165	0.09515647
45	0x3bdac68d	0.006676501
46	0xbdb39331	-0.08768309
47	0xbee1b313	-0.44081935
48	0x3e9d4ed3	0.307242
49	0x3efcaffa	0.4935301
50	0xbedef007	-0.435425
51	0xbe5c92d7	-0.2154039
52	0x3be4d9fb	0.006983993
53	0x3e39058d	0.18068524
54	0xbe1ce3e7	-0.15321313
55	0x3e14a1dc	0.1451487
56	0xbe534839	-0.2063302
57	0x3e4a3af0	0.19749045
58	0x3e8906e0	0.26763058
59	0x3d617cc6	0.055050634
60	0xbeb87c58	-0.36032367
61	0x3e0e0389	0.13868536
62	0xbee1e4f5	-0.44119993
63	0xbe8235e0	-0.25431728
64	0xbdb6395c	-0.08897659
65	0x3e3eb9ec	0.18625611
66	0x3d153233	0.036424827
67	0xbdbdf1c2	-0.09274627
68	0xbf11db46	-0.5697521
69	0xbd7273ca	-0.059192456
70	0x3e8b7ce9	0.27243736
71	0x3e91e8e4	0.28497994
72	0xbeb57ad7	-0.35445282
73	0x3e159d4c	0.14610785
74	0xbf00052a	-0.5000788
75	0xbf01cdc7	-0.50704616
76	0xbda30fc1	-0.07961989
77	0x3e46a968	0.19400561
78	0xbe16692c	-0.14688557
79	0xbe0ecfc8	-0.1394645
80	0xbe9b8472	-0.30374485
81	0xbd9e17b2	-0.07719363
82	0xbd390a4b	-0.04517583
83	0x3e83659b	0.25663456
84	0xbe75c63a	-0.24001399
85	0x3d8cde27	0.0687831
86	0xbd3fbb76	-0.046809636
87	0x3dda4f2d	0.10659633
88	0xbec3d7b7	-0.38250515
89	0xbe467bf7	-0.19383226
90	0x3d408093	0.046997618
91	0xbefce121	-0.4939051
92	0x3e9ba48b	0.30398974
93	0xbe7cf2f3	-0.24702053
94	0xbe5b9d82	-0.21446803
95	0x3d3d91e6	0.046281718
96	0x3bfa704d	0.007642782
97	0xbec0aa0b	-0.37629732
98	0xbec4ccbf	-0.3843746
99	0x3debf1f3	0.115207575
100	0x3eb85d0c	0.3600849
101	0x3e034a78	0.12821376
102	0xbe89d119	-0.2691734
103	0xbed3bfdc	-0.41357315
104	0xbe98112f	-0.2970061
105	0xbef7fed3	-0.48436603
106	0xbe2f3291	-0.17109133
107	0xbd97e4db	-0.074166976
108	0xbea21f3d	-0.31664458
109	0xbe4a8640	-0.19777775
110	0xbdbb466b	-0.091442905
111	0x3e64c5a8	0.22341025
112	0xbe340822	-0.17581227
113	0xbee94bf5	-0.45565763
114	0xbf1be15d	-0.6089075
115	0xbe4b3584	-0.19844633
116	0xbd5bf107	-0.05369666
117	0x3ecf653e	0.4050693
118	0xbec730a2	-0.3890429
119	0xbf0db026	-0.55346906
120	0x3c9375d9	0.01800053
121	0x3a4950fd	0.00076796097
122	0xbed29e95	-0.41136613
123	0xbee07b50	-0.4384408
124	0xbe6b4c1f	-0.22978257
125	0xbda0fed4	-0.078611046
126	0x3e83acf5	0.25717893
127	0xbe5681d7	-0.20947967

fc2.weight f4 [64, 128]
0	0xbe209d06	-0.156849
1	0x3cc9b29f	0.024621306
2	0x3db26f95	0.08712689
3	0xbe449c73	-0.19200306
4	0x3dccc067	0.09997635
5	0xbbae14b7	-0.005312528
6	0x3c9da800	0.019245148
7	0xbd0d7559	-0.03453574
8	0xbe7a516c	-0.24445122
9	0xbe271fed	-0.16320772
10	0xbd1df4ca	-0.038563527
11	0xbda8419f	-0.08215641
12	0x3cc8b818	0.024501845
13	0xbd69ad39	-0.057049964
14	0xbb8442c0	-0.0040362775
15	0x3be65f27	0.007030386
16	0x3d51b3e6	0.051196955
17	0xbda93ba1	-0.082633264
18	0x3d0c0f47	0.034194257
19	0xbbbdb77e	-0.0057896962
20	0xbc09aeaf	-0.008403464
21	0xbdb0c191	-0.0863067
22	0x3d4f39a6	0.050592087
23	0x3d738734	0.05945511
24	0x3c7fe709	0.015619048
25	0xbdf59025	-0.11990384
26	0xbd5f29b4	-0.05448313
27	0x3bb2023c	0.0054323953
28	0xbc4b8923	-0.012422833
29	0xbc750616	-0.014955064
30	0xbca320dd	-0.019913131
31	0xbdd83c5c	-0.10558388
32	0x3d7a44e6	0.061100863
33	0xbe76bd0b	-0.24095552
34	0x3d250c88	0.040295154
35	0xbe007e91	-0.12548281
36	0x3cd06752	0.025439892
37	0xbce56826	-0.028003763
38	0xbdd2d1fb	-0.10293957
39	0x3b40f920	0.0029445365
40	0xbcd19bd1	-0.025586994
41	0x3da19041	0.078888424
42	0x3e577ff5	0.21044905
43	0x3d15eafa	0.036601044
44	0x3cc17756	0.023616474
45	0xbcb78197	-0.02240066
46	0x3de33262	0.11093594
47	0xbd38b016	-0.045089804
48	0xbe488603	-0.19582371
49	0xbd45db6e	-0.048304968
50	0x3e686ace	0.22696993
51	0x3e0ff906	0.14059839
52	0x3df418a9	0.11918766
53	0xbce0b2b6	-0.027428966
54	0x3dec5919	0.115404315
55	0x3ccfecd2	0.02538148
56	0xbd97c9f3	-0.07411566
57	0x3cab2ddc	0.02089589
58	0xbd0c2956	-0.03421911
59	0xbd182ef3	-0.03715415
60	0x3d1c0f07	0.03810027
61	0x3c880ea1	0.016608538
62	0xbf194047	-0.59863704
63	0xbb43a53e	-0.002985313
64	0xbc64a750	-0.013955906
65	0xbc8ca2a5	-0.017167399
66	0x3d4b4f18	0.049635977
67	0x3d2c437f	0.042056557
68	0xbe01e05b	-0.12683241
69	0x3cb67ae5	0.022275398
70	0xbb3a3063	-0.0028410188
71	0xbda3c7c8	-0.079970896
72	0xbdbf9d25	-0.09356145
73	0x3c30321e	0.010754136
74	0x3c521239	0.012821727
75	0x3ddfca7f	0.10927295
76	0x3d056004	0.03256227
77	0x3e054a30	0.13016582
78	0xbd2330a9	-0.039841328
79	0xbe04783a	-0.12936488
80	0x3d1ee341	0.038790945
81	0xbd3219c1	-0.043481592
82	0x3c14e96a	0.009088853
83	0x3bed047a	0.0072331997
84	0x3cd5bbfc	0.026090614
85	0x3c99382b	0.01870354
86	0x3d05622a	0.03256432
87	0x3cc15cea	0.023603875
88	0x3d26bfc8	0.04071024
89	0x3ccc7cf2	0.024961922
90	0x3c59521f	0.013264208
91	0x3d1593ff	0.036518093
92	0x3ca0c64c	0.019625805
93	0x3c92c805	0.017917642
94	0x3a90759c	0.0011021378
95	0x3cab69f8	0.020924553
96	0xbdaabac8	-0.08336407
97	0xbebcbab7	-0.36861202
98	0xbd58bcc5	-0.0529144
99	0x3be244d5	0.006905178
100	0xbc90ad97	-0.0176609
101	0xbcba21c9	-0.022721188
102	0xbeb6072f	-0.35552356
103	0xbe9e2b3d	-0.30892363
104	0x3d84012f	0.06445538
105	0x3d473838	0.0486376
106	0x3c91a472	0.017778609
107	0x3d735dd2	0.059415646
108	0x3b0e596c	0.002172078
109	0x3d323b65	0.043513674
110	0x3c602eea	0.01368306
111	0xbcb6820e	-0.022278812
112	0xbe182152	-0.1485646
113	0x3ca3e187	0.020005
114	0xbef9290d	-0.48664132
115	0x3da0b24c	0.078465074
116	0x3d85730b	0.06516083
117	0x3d8ebf0a	0.069700316
118	0xbd3dfc70	-0.04638332
119	0x3df2dc5c	0.118584365
120	0x3cca0b3d	0.024663562
121	0x3cf01ce3	0.02931065
122	0x3cf466ba	0.02983414
123	0xbebc6b9a	-0.36800843
124	0x3da368f0	0.079789996
125	0x3e2890ca	0.16461483
126	0x3ca4c322	0.020112578
127	0x3b321eb1	0.0027178938
128	0x3d1d8ff8	0.038467377
129	0x3cce8a20	0.025212348
130	0xbc6f4048	-0.014602728
131	0x3eb34f64	0.35021508
132	0x3ce4cb23	0.027928894
133	0x3d5df1e2	0.054185756
134	0x3d152036	0.036407672
135	0xbd297204	-0.0413685
136	0xbc434d0f	-0.011920228
137	0x3d8feab1	0.07027186
138	0x3df54592	0.1197616
139	0xbda5ea85	-0.08101372
140	0xbcf855d3	-0.030314362
141	0xbd1d23b9	-0.038364146
142	0x3cda6359	0.0266587
143	0x3e2acc93	0.16679601
144	0x3bea4e01	0.007150412
145	0xbcbbc7ef	-0.022922484
146	0xbd6727c1	-0.056434397
147	0xbc2fdfb7	-0.01073449
148	0x3dac0620	0.08399606
149	0x3ebfdffd	0.37475577
150	0xbd803c38	-0.06261486
151	0x3d920fa3	0.07131889
152	0xbc070cc7	-0.008242792
153	0xbc92b1fd	-0.017907137
154	0x3e4d6b8a	0.20060554
155	0xbd0b9d8b	-0.03408579
156	0x3d846ccc	0.06466064
157	0x3cdb5ec6	0.02677859
158	0x3d57e155	0.052705128
159	0x3b993cc8	0.004676435
160	0xbc0ced46	-0.008601492
161	0x3e469404	0.19392401
162	0x3dc5a462	0.09650494
163	0x3d7b59fa	0.061365105
164	0x3d66bf4c	0.05633478
165	0xbc81ed55	-0.015860239
166	0x3ed031e7	0.40663072
167	0x3d6efc79	0.058346245
168	0x3d0594a4	0.032612458
169	0x3cd0b664	0.025477596
170	0xbdd27187	-0.1027556
171	0x3ca7c463	0.020479387
172	0x3d2a70fa	0.04161165
173	0xbd3c5249	-0.04597691
174	0xba402552	-0.000732978
175	0x3e413101	0.1886635
176	0xbc8961c2	-0.016770247
177	0x3d04c8df	0.032418128
178	0xbdf7f9bb	-0.12108179
179	0x3c040e0e	0.0080599915
180	0xbd99edff	-0.07516097
181	0xbce4db8f	-0.027936725
182	0xbdf17a4a	-0.11790903
183	0x3d91bdd3	0.07116284
184	0xbce3e176	-0.02781747
185	0x3db04c91	0.08608354
186	0xbd3c4307	-0.04596236
187	0xbc70f04a	-0.014705727
188	0xbcb0d607	-0.021586431
189	0x3bc71ff6	0.006076808
190	0x3ed1cb4f	0.40975425
191	0xbc5edc40	-0.013602316
192	0x3b9b7309	0.004743938
193	0x3d8ae554	0.06782022
194	0x3ae45302	0.0017419758
195	0x3dace115	0.084413685
196	0xbdea867c	-0.11451432
197	0x3daef9e8	0.085437596
198	0x3d68ade2	0.056806453
199	0x3cc1e059	0.023666548
200	0xbd841053	-0.06448426
201	0x3bb40d89	0.0054947776
202	0x3bdc8e5e	0.0067308387
203	0x3d8cb41e	0.06870292
204	0x3d974d7c	0.07387826
205	0xbd0459a4	-0.03231205
206	0x3df97d05	0.12182049
207	0x3a8f858a	0.0010949832
208	0xbd07b82b	-0.03313462
209	0x3d6c2598	0.05765304
210	0xbd5eca1b	-0.05439196
211	0x3a8db161	0.0010810309
212	0xbd238e09	-0.039930377
213	0x3cc73f86	0.024322283
214	0x3dc13bb2	0.09435214
215	0x3d7353ea	0.0594062
216	0x3da01755	0.0781695
217	0x3e00842d	0.12550421
218	0x3c93e9e1	0.018055858
219	0x3e348ecb	0.17632596
220	0x3d4c608b	0.049896758
221	0x3dff5812	0.1246797
222	0xbc9f9603	-0.01948071
223	0xbaabf0b5	-0.0013118001
224	0xbca7f7c8	-0.020503893
225	0x3f1008d9	0.562635
226	0x3dd20ee2	0.10256745
227	0xbc1261d9	-0.0089344615
228	0xbbbe0789	-0.005799238
229	0x3d444a65	0.04792251
230	0x3e53eb36	0.20695195
231	0x3f29c68e	0.66318595
232	0x3a43edb3	0.00074740796
233	0x3e1106e6	0.14162788
234	0x3d57729f	0.052599546
235	0x3c6a002b	0.014282267
236	0xbcdcae84	-0.026938684
237	0x3ce3d48f	0.027811317
238	0xbd21534e	-0.039386086
239	0xbce21fc3	-0.027603036
240	0x3dd1a678	0.102368295
241	0xbd36262c	-0.044469997
242	0x3f4cce50	0.8000231
243	0xbbae48ed	-0.005318752
244	0xbd1d7416	-0.038440786
245	0xbb832669	-0.0040023816
246	0x3d716d8d	0.058942366
247	0x3af3f5b2	0.0018612652
248	0x3d47096a	0.048592962
249	0x3d88248d	0.066475965
250	0x3cbfc111	0.02340749
251	0x3ee97b4f	0.4560189
252	0xbda08862	-0.07838513
253	0xbd6b0802	-0.057380684
254	0xbd223a59	-0.039606426
255	0xbcb734b6	-0.022364002

fc2.bias f4 [64]
0	0xbe66dd89	-0.22545446
1	0x3e87b019	0.2650154
2	0xbe52afa5	-0.20574816
3	0xbea85e38	-0.32884383
4	0x3eb202c4	0.34767735
5	0x3ef43c6d	0.4770235
6	0x3e9e64bb	0.30936226
7	0x3ebb7226	0.36610526
8	0x3eca982a	0.39569217
9	0x3ea60ef7	0.32433292
10	0x3ea0147e	0.31265634
11	0x3e9bc12c	0.30420816
12	0x3ede5705	0.43425766
13	0x3d858832	0.06520118
14	0x3e99194f	0.2990212
15	0x3ea39cf4	0.31955683
16	0x3ec7d50b	0.39029726
17	0x3e9aaae7	0.30208513
18	0x3efae5af	0.4900336
19	0x3e9c47a0	0.30523396
20	0x3e97336b	0.29531416
21	0xbe1007d0	-0.1406548
22	0xbe9c5eed	-0.30541173
23	0xbd483845	-0.048881788
24	0x3e8a0f4e	0.26964802
25	0xbeaaeb39	-0.33382586
26	0x3e7a0ce0	0.24418974
27	0x3eb0a420	0.34500217
28	0x3e6d2d8f	0.2316191
29	0x3e0c8b3a	0.13724986
30	0x3d9adb8b	0.07561406
31	0x3ecdcf70	0.40197325
32	0xbe921de8	-0.28538442
33	0x3e972326	0.29519004
34	0x3e9b24fb	0.3030165
35	0xbe4c60f8	-0.19958866
36	0x3ec5cb0d	0.38631478
37	0x3ed039b2	0.40669018
38	0x3ea690ce	0.32532352
39	0xbeaf5c1f	-0.3424997
40	0x3eda12be	0.42592424
41	0x3e892cb3	0.26791915
42	0x3ec36c0a	0.38168365
43	0x3ea13cde	0.3149175
44	0x3ebc23b3	0.36745986
45	0x3e209a39	0.15683831
46	0x3ebae1fc	0.36500537
47	0xbe65fce2	-0.22459748
48	0x3ea925e5	0.33036724
49	0x3edb1725	0.42791095
50	0x3eb001f4	0.3437649
51	0x3ead10fd	0.33802024
52	0x3e858121	0.2607508
53	0x3e92f134	0.28699648
54	0x3ecf52e1	0.4049292
55	0x3ed28e8c	0.4112438
56	0x3eb9e82f	0.36309955
57	0x3eb95200	0.36195374
58	0x3ec9fa33	0.394487
59	0x3eae953a	0.34098226
60	0x3ec48aab	0.38387045
61	0x3e8a70f4	0.270393
62	0x3eca3717	0.39495155
63	0x3e9645e0	0.29350185

fc3.weight f4 [32, 64]
0	0xbe51b718	-0.20480001
1	0x3e22feb7	0.15917479
2	0xbe2a8faf	-0.16656373
3	0xbe577187	-0.21039401
4	0x3d99ae21	0.075039156
5	0x3e77c0d0	0.24194646
6	0x3d850154	0.06494394
7	0x3decebfa	0.115684465
8	0x3d86af76	0.06576435
9	0x3e558214	0.20850402
10	0x3db8b5c7	0.09019046
11	0x3bfa3d23	0.0076366826
12	0x3dc36224	0.09540203
13	0x3e8bc33d	0.27297392
14	0x3e7cd4dd	0.24690576
15	0x3e8082d0	0.25099802
16	0x3d20cb9a	0.03925667
17	0x3d1d0adc	0.038340434
18	0x3e87d7af	0.2653174
19	0x3d862651	0.06550277
20	0x3d9c1aa7	0.07622271
21	0xbe6d16e2	-0.2315326
22	0xbeef2f6c	-0.46715868
23	0x3f1def93	0.61693686
24	0x3e0d148e	0.13777372
25	0xbe8a2636	-0.26982278
26	0x3e9f8cb1	0.31162027
27	0x3e7953e9	0.24348415
28	0x3e73122a	0.23737398
29	0x3e666edc	0.22503227
30	0x3ef44dbc	0.47715557
31	0x3d7fe1f4	0.062471345
32	0xbe5a3766	-0.21310195
33	0x3e41de21	0.18932392
34	0x3e42161c	0.18953747
35	0xbe9d5135	-0.3072602
36	0x3e01c08c	0.12671107
37	0x3e36cbf2	0.17851236
38	0x3e09e0cc	0.1346466
39	0xbeb55f77	-0.35424396
40	0x3dad497a	0.0846128
41	0x3e04e826	0.12979183
42	0x3e083b15	0.13303788
43	0x3db2f784	0.08738616
44	0x3e72841c	0.23683208
45	0x3e7b9893	0.24569921
46	0x3e06bda2	0.13158277
47	0xbecbac33	-0.39779815
48	0x3e4e4225	0.2014242
49	0x3e00ce87	0.12578784
50	0x3e241725	0.16024454
51	0x3e43b107	0.191105
52	0x3e2c9d45	0.16856869
53	0x3e375632	0.17903975
54	0x3e14df52	0.14538315
55	0x3d54586d	0.051842142
56	0x3e82378a	0.25432998
57	0x3d4aa60b	0.049474757
58	0x3e71c3c7	0.2360984
59	0x3e755316	0.23957476
60	0x3df5df93	0.12005534
61	0x3e5380f9	0.20654668
62	0x3da343d8	0.079719245
63	0x3dd17f3d	0.10229347
64	0xbd1293a3	-0.03578533
65	0x3d732e9c	0.059370622
66	0x3d071c7c	0.03298615
67	0xbdec6b21	-0.11543871
68	0xbe0da447	-0.13832198
69	0xbd9914b1	-0.0747465
70	0xbdeef40e	-0.116676435
71	0xbda81bcb	-0.08208426
72	0xbe183d4c	-0.14867133
73	0xbda5838f	-0.080817334
74	0xbe49e2d6	-0.19715437
75	0x3cb463d2	0.022020254
76	0x3d5dd26e	0.05415576
77	0x3c6dc10b	0.014511357
78	0xbdd43a72	-0.1036271
79	0xbdecabc3	-0.115561984
80	0xbdc17322	-0.09445788
81	0xbda56ee6	-0.08077793
82	0xbda9f862	-0.082993284
83	0xbe607cc8	-0.219226
84	0xbd723ebe	-0.059141867
85	0xbe2cfa02	-0.16892245
86	0xbd0844b9	-0.033268664
87	0xbb28b58a	-0.0025742971
88	0x3c9ff387	0.019525303
89	0x3d44baf7	0.048029866
90	0x3d9855a0	0.07438207
91	0x3da409d0	0.08009684
92	0xbe0e658a	-0.13905922
93	0x3c664ad2	0.0140559245
94	0xbd4b162e	-0.0495817
95	0xbdbc770c	-0.09202394
96	0x3c95934e	0.018258717
97	0x3bbdc5a0	0.005791381
98	0xbd818ae2	-0.06325318
99	0x3d2e0991	0.042489592
100	0xbd396402	-0.04526139
101	0x3d771978	0.060327023
102	0xbd7f9bae	-0.062404327
103	0x3c8b75b9	0.017023908
104	0xbdaf6aef	-0.08565318
105	0xbdf3cb8e	-0.11904059
106	0xbd7a8c41	-0.061168913
107	0xbda2f1b1	-0.07956255
108	0xbdf948fd	-0.121721245
109	0xbd8911da	-0.06692858
110	0x3d36ff21	0.044676904
111	0x3dc26140	0.09491205
112	0x3debb3aa	0.115088776
113	0xbde2ea93	-0.11079898
114	0xbce77dca	-0.028258223
115	0x3e0ae3ab	0.13563411
116	0xbd8aff26	-0.06786947
117	0x3d2ad731	0.04170913
118	0xbd2efe01	-0.042722706
119	0xbe03614f	-0.12830089
120	0xbe1733c3	-0.1476584
121	0xbe5c2803	-0.21499638
122	0xbe029430	-0.12751842
123	0xbdf12b8f	-0.11775886
124	0x3db91bc6	0.090385005
125	0xbdfa684c	-0.12226924
126	0xbd9006e9	-0.07032568
127	0xbe35f58a	-0.17769447
128	0xbe01e0c2	-0.12683395
129	0x3e71b9e6	0.23606071
130	0xbead83eb	-0.33889708
131	0xbe4bdecd	-0.1990921
132	0x3d65a1ee	0.05606263
133	0x3de49db2	0.111628905
134	0x3d9f3015	0.07772843
135	0x3db775be	0.089580044
136	0x3ce7de69	0.028304296
137	0x3e6cbf8d	0.23119946
138	0x3e86549a	0.2623642
139	0x3dc88d80	0.09792614
140	0x3d385ebe	0.04501223
141	0x3e938d95	0.28818956
142	0x3e0c02b1	0.13672902
143	0x3e643d3a	0.22288981
144	0x3dbfafcb	0.09359702
145	0x3dc5a758	0.09651059
146	0x3ed59b1b	0.417199
147	0x3e722d2c	0.23650044
148	0x3e1e2f2b	0.1544768
149	0xbeb67c45	-0.35641685
150	0xbed1e929	-0.409982
151	0x3f0a31f9	0.539825
152	0x3e5893db	0.21150152
153	0xbef4ced9	-0.47814062
154	0x3e58f7a7	0.21188222
155	0x3d8ea4c3	0.069650196
156	0x3e80f714	0.25188506
157	0x3ead5b7a	0.33858854
158	0x3eef8f2b	0.46788916
159	0x3da7c7a5	0.08192376
160	0xbd6deb1b	-0.058085542
161	0x3dfdf6ed	0.12400613
162	0x3dab4865	0.083634175
163	0xbed78443	-0.42093095
164	0x3d6b0d3d	0.057385672
165	0x3d356897	0.044289198
166	0x3dee3bb7	0.116324835
167	0xbe32cbe2	-0.17460588
168	0x3d7c7715	0.061637003
169	0x3e5c74e7	0.2152897
170	0x3dde967f	0.108685486
171	0x3df8269a	0.12116738
172	0x3e8dbd84	0.2768365
173	0x3ea86c4b	0.3289512
174	0x3e97461e	0.29545683
175	0xbec71940	-0.38886452
176	0x3d2a7f10	0.041625082
177	0x3e109110	0.14117837
178	0x3c300809	0.010744103
179	0x3e28a45a	0.16468945
180	0x3e76e33b	0.24110119
181	0x3e20496a	0.15653005
182	0x3dfcac1e	0.12337516
183	0x3e457226	0.19281825
184	0x3e9a5de7	0.30149767
185	0x3e24b3eb	0.16084258
186	0x3d0da99a	0.034585573
187	0x3e399ec1	0.18126966
188	0x3e0d1fe5	0.13781698
189	0x3e083730	0.13302302
190	0x3e823013	0.25427303
191	0x3d0ef3e7	0.034900572
192	0xbe90a887	-0.28253576
193	0x3d0238b1	0.031792346
194	0xbe8a88c0	-0.27057457
195	0xbe9ef21d	-0.31044093
196	0x3e2f6888	0.1712972
197	0x3e29dfac	0.1658923
198	0x3e5d033e	0.21583268
199	0x3e65f7a2	0.22457746
200	0x3e08bbc8	0.13352883
201	0x3d76a225	0.060213227
202	0x3ccd2c12	0.025045428
203	0x3e014d1b	0.1262707
204	0x3d6f6c1f	0.05845272
205	0x3ea287fe	0.3174438
206	0x3e0f8489	0.14015402
207	0x3e209cb0	0.15684772
208	0x3e56c0a3	0.20971923
209	0x3e6b7ea5	0.2299753
210	0x3e7d684c	0.24746817
211	0x3e59bd48	0.21263611
212	0x3e39c71f	0.18142365
213	0xbe0f265d	-0.13979478
214	0xbec75c8c	-0.38937795
215	0x3f16a342	0.5884286
216	0x3dd4dc75	0.10393611
217	0xbe679d6e	-0.22618648
218	0x3e9a03e4	0.30081093
219	0x3d637e1c	0.05554019
220	0x3e5b6832	0.21426466
221	0x3e9727b9	0.29522493
222	0x3eeee514	0.46659148
223	0x3e4c21e9	0.1993481
224	0xbe5f9fdf	-0.2183833
225	0x3e4297ff	0.19003294
226	0x3e66d9fc	0.22544092
227	0xbecc5799	-0.39910582
228	0x3d80e51d	0.062937
229	0x3dff6b79	0.12471671
230	0x3e821e45	0.2541372
231	0xbeb02573	-0.3440357
232	0x3e720346	0.23634061
233	0x3e0f498a	0.13992897
234	0x3dfce9b1	0.123492606
235	0x3e293888	0.16525471
236	0x3e804022	0.2504893
237	0x3de798e2	0.11308457
238	0x3e8d2356	0.27566022
239	0xbe9df2e5	-0.30849376
240	0x3d3fb5d8	0.04680428
241	0x3e038b1c	0.12846035
242	0xb9569265	-0.00020463167
243	0x3e247014	0.1605838
244	0x3e6f520a	0.23371139
245	0x3e23716e	0.15961239
246	0x3d20d3a5	0.03926434
247	0x3e2fff57	0.17187248
248	0x3e55577e	0.20834157
249	0x3e6efdbb	0.23338978
250	0x3cf26daf	0.029593317
251	0x3e6f151c	0.23347896
252	0x3e4db85a	0.20089856
253	0x3e678343	0.22608666
254	0x3e386b76	0.18009743
255	0x3e56e044	0.20983988

fc3.bias f4 [32]
0	0x3f970670	1.179884
1	0x3ea80169	0.32813576
2	0x3fa7e6f0	1.3117352
3	0x3f9eb87b	1.2400049
4	0xbd9e37c9	-0.07725484
5	0x3e848b9d	0.25887766
6	0x3e4f5656	0.20247778
7	0x3ea296ed	0.31755772
8	0x3f9deedb	1.2338518
9	0x3fa3f567	1.2809266
10	0xbd6aa5c1	-0.05728698
11	0xbce76ed3	-0.028251087
12	0x3fa4fdbd	1.2889935
13	0x3e99fda4	0.30076325
14	0x3f963c9c	1.1737247
15	0x3e255baf	0.16148256
16	0x3f6a35b5	0.914882
17	0x3f8c45bd	1.0958782
18	0xbd3239ca	-0.043512143
19	0x3ea3f398	0.32021785
20	0x3f951d8d	1.1649643
21	0x3f93f035	1.155768
22	0x3fa9ec5a	1.3275254
23	0x3fa3f2cd	1.2808472
24	0x3e944aa6	0.28963202
25	0xbdc4f1ce	-0.09616433
26	0x3f91603c	1.1357493
27	0x3e97d59b	0.29655156
28	0x3f9ba975	1.2161089
29	0x3e81588f	0.25262877
30	0x3fa7ce7b	1.3109888
31	0x3fab203d	1.3369213

fc4.weight f4 [1, 32]
0	0x3e94b12d	0.29041424
1	0xbf046dfb	-0.51730317
2	0x3e832660	0.25615215
3	0x3e96e63f	0.2947254
4	0xbe30d118	-0.17267263
5	0xbef36bde	-0.47543234
6	0xbf08c2eb	-0.5342242
7	0xbf046547	-0.51717037
8	0x3e90c840	0.2827778
9	0x3ec71aea	0.3888772
10	0xbe5f3b6c	-0.21800011
11	0xbdf30e12	-0.11867918
12	0x3e9343d1	0.28762677
13	0xbf2691e8	-0.65066385
14	0x3e8928b0	0.26788855
15	0xbeb5c147	-0.3549902
16	0x3f7985b7	0.9746966
17	0x3ea858f6	0.32880372
18	0xbddd0c37	-0.107933454
19	0xbedd2063	-0.43188772
20	0x3ea64f0b	0.3248218
21	0x3e828583	0.25492486
22	0x3e9e5810	0.3092656
23	0x3ec838e9	0.3910592
24	0xbf1f5a88	-0.62247515
25	0xbee04c15	-0.43808046
26	0x3ea0a3e0	0.31375027
27	0xbeed120e	-0.46302837
28	0x3e7c76d0	0.24654698
29	0xbf2dc4d1	-0.67878443
30	0x3ed48db3	0.41514358
31	0x3e8088a9	0.25104263
