best_model.pth (torch, 21350 bytes, 5 tensors)

fc1.weight f4 [64, 6]
-0.4620023 0.28097782 0.021286573 -0.34319326 -0.30093035 -0.3649375 -0.15819228 -0.47814673
0.44653156 -0.086256884 0.07916509 0.22055677 0.22789524 -0.29235882 -0.02625161 0.42575234
0.14071584 0.053422492 -0.07243832 0.8859986 -0.0035126004 -0.10050213 0.4691232 0.6874792
-0.043197516 0.7503615 0.0085377535 0.069320254 -0.30165455 0.26885226 0.17146403 -0.8316922
-0.14094625 0.18955785 0.15195084 -0.10543415 0.1311412 -0.61680025 -0.25895235 -0.3429163
-0.38053587 -0.28546128 0.06385809 0.003189227 -0.2188249 -0.38060042 0.18871759 0.2550593
-0.30231294 -0.74974996 -0.505041 0.33790112 -0.2975692 0.6144751 0.012247576 0.44769958
-0.10594539 0.22305869 0.044601988 -0.35359445 0.052777544 0.26493418 0.59582007 0.19208226
0.06833162 0.05962737 -0.06275764 0.14449702 0.22830088 -0.25697327 0.11240755 0.26171526
0.13617288 -0.12797174 0.09280249 0.26114452 0.29877967 0.3791832 0.27252293 -0.5866276
0.13367026 0.13515177 0.10927129 0.24115601 0.29744998 -0.087704845 0.15409681 -0.1804026
-1.02291 1.2379935 0.013070141 -0.6200666 0.24903536 -0.27642718 0.5070842 0.46610534
-0.003441625 0.26533747 -0.27758947 -0.62510693 0.12269958 -0.041287668 -0.18533152 -0.6529549
-0.23740867 -0.37780935 0.48650488 -0.429722 0.038154863 -0.6712383 0.22656822 0.20462067
-0.2345643 0.08767686 -0.060994193 -0.122051276 0.48820737 0.517288 0.105670415 0.846354
0.06082753 -0.8953457 -0.0025739647 -0.06122615 -0.22133851 0.2437446 0.13804993 -1.066753
-0.021059403 -0.2596591 -0.24047357 0.39499182 -0.040588886 -0.4041575 0.18667915 -0.2668641
-0.2824888 0.1639617 -0.320354 -0.47209078 -0.13389334 -0.42443496 -0.6305728 0.39686838
0.122351676 -0.47413447 -0.2971285 0.06174177 -0.40321848 -0.10498597 -0.6620751 0.6304246
-0.31890064 -0.044569727 -0.110618174 0.34101835 0.06056891 -0.9403552 0.12097798 -0.185891
0.02512997 0.027147293 0.11339336 -0.92724407 0.0090381885 -0.25704712 0.31379318 -0.28114498
0.1126016 -0.07940367 0.2354287 -0.21165791 0.14089471 -0.2791008 0.2788382 -0.38497928
0.0990069 -0.041365404 0.8933212 0.28706393 0.21816264 -0.79589695 -0.027410045 0.12268231
0.01369024 -0.0021459374 -0.073891185 -0.11438478 -0.3285201 0.049096774 0.16206637 -0.12766431
0.158462 -0.82758385 0.13074657 -0.38908234 0.35600406 0.06411156 -0.032159194 -0.82673633
0.08679312 -0.17412685 -0.13909526 -0.36864468 0.029902123 -0.9323402 -0.25108263 -0.06351952
0.113396645 0.14941862 -0.08670611 -0.44696176 0.0044562025 -0.06859753 0.07821449 0.2238362
0.07638477 -0.45076677 -0.029047932 -0.20247798 -0.4142865 -0.4070049 0.039950047 -1.0862393
0.08645182 -0.14747806 -0.17370874 -0.046666734 -0.30500358 -0.67007834 0.40858275 0.4357233
0.32381675 0.48959327 -0.018213164 0.68170804 0.041064125 0.0914518 0.06153953 0.010024884
-0.22680931 -0.02402034 0.34732756 0.12308872 0.32438114 -0.028160272 0.019834679 -0.75687945
-0.017463317 0.27954316 0.52815413 -0.044178806 0.25441533 -0.7896797 -0.0049984856 0.20862229
00000000: 918b ecbe 53dc 8f3e 2e61 ae3c 07b7 afbe
00000010: 8b13 9abe 17d9 babe 28fd 21be a6cf f4be
00000020: c99f e43e 73a7 b0bd 4f21 a23d a2d9 613e
00000030: 5f5d 693e 0eb0 95be 9e0d d7bc 36fc d93e
00000040: d017 103e 8bd1 5a3d 8b5a 94bd ced0 623f
00000050: a833 66bb 10d4 cdbd eb30 f03e a3fe 2f3f
00000060: e1ef 30bd b117 403f efe1 0b3c c7f7 8d3d
00000070: 7772 9abe 01a7 893e 4494 2f3e c8e9 54bf
00000080: 3754 10be 741b 423e 0099 1b3e dced d7bd
00000090: e149 063e 9fe6 1dbf 6795 84be ba92 afbe
000000a0: 99d5 c2be fb27 92be 08c8 823d 5a02 513b
000000b0: a213 60be 0fde c2be 2f3f 413e 2297 823e
000000c0: c3c8 9abe 9def 3fbf 5e4a 01bf 6001 ad3e
000000d0: fd5a 98be 3d4e 1d3f 0faa 483c e138 e53e
000000e0: e6f9 d8bd 7f69 643e 93b0 363d 550a b5be
000000f0: 442d 583d 74a5 873e aa87 183f 36b1 443e
00000100: 73f1 8b3d d43b 743d 1487 80bd 07f7 133e
00000110: b5c7 693e 0092 83be ee35 e63d 8bff 853e
00000120: e770 0b3e 060b 03be 3b0f be3d bcb4 853e
00000130: a6f9 983e 4d24 c23e 2088 8b3e 3a2d 16bf
00000140: dbe0 083e 3a65 0a3e a0c9 df3d 9af1 763e
00000150: 5d4b 983e 999e b3bd 8ecb 1d3e 76bb 38be
00000160: b7ee 82bf 9276 9e3f 2524 563c afbc 1ebf
00000170: 2003 7f3e dd87 8dbe 45d0 013f 5ca5 ee3e
00000180: e38c 61bb 50da 873e 3520 8ebe 0207 20bf
00000190: eb49 fb3d 421d 29bd 8cc7 3dbe 0d28 27bf
000001a0: 421b 73be 3a70 c1be 2b17 f93e 8604 dcbe
000001b0: 4648 1c3d 46d6 2bbf 8001 683e 1588 513e
000001c0: a031 70be ed8f b33d 0cd5 79bd 05f6 f9bd
000001d0: 51f6 f93e fd6c 043f bb69 d83d a8aa 583f
000001e0: 4a26 793d 6035 65bf f6af 28bb 45c8 7abd
000001f0: 90a6 62be 2f98 793e f65c 0d3e 5d8b 88bf
00000200: c584 acbc 0af2 84be b43e 76be 5e3c ca3e
00000210: 8840 26bd bbed cebe d228 3f3e 69a2 88be
00000220: 5fa2 90be 93e5 273e 7105 a4be e2b5 f1be
00000230: 561b 09be 8a4f d9be 386d 21bf 5532 cb3e
00000240: 8493 fa3d c1c1 f2be 3a21 98be f0e4 7c3d
00000250: a772 cebe e202 d7bd c17d 29bf 8263 213f
00000260: f246 a3be bf8e 36bd c88b e2bd f599 ae3e
00000270: 1b17 783d 1ebb 70bf 4ec3 f73d 365a 3ebe
00000280: 5edd cd3c 0064 de3c c73a e83d de5f 6dbf
00000290: e914 143c ae9b 83be 80a9 a03e 3cf2 8fbe
000002a0: ab9b e63d 649e a2bd 3914 713e dabc 58be
000002b0: b446 103e 4de6 8ebe e1c3 8e3e 011c c5be
000002c0: 21c4 ca3d c56e 29bd b3b0 643f 0bfa 923e
000002d0: 0766 5f3e e7bf 4bbf 088b e0bc dd40 fb3d
000002e0: 074d 603c dba2 0cbb 4354 97bd 9142 eabd
000002f0: c933 a8be b319 493d baf4 253e 6fba 02be
00000300: dd43 223e 89dc 53bf 6ee2 053e cd35 c7be
00000310: 2a46 b63e ec4c 833d 5cb9 03bd fea4 53bf
00000320: 97c0 b13d 4f4e 32be fd6e 0ebe ffbe bcbe
00000330: 4cf5 f43c d9ad 6ebf e78d 80be 8616 82bd
00000340: 803c e83d 3201 193e f992 b1bd 2cd8 e4be
00000350: 5605 923b dd7c 8cbd eb2e a03d 5135 653e
00000360: 9e6f 9c3d e7ca e6be eef5 edbc 6356 4fbe
00000370: 5c1d d4be f262 d0be a9a2 233d e409 8bbf
00000380: a70d b13d 7d04 17be b4e0 31be 9e25 3fbd
00000390: 6e29 9cbe 418a 2bbf c231 d13e 2017 df3e
000003a0: 4fcb a53e f8ab fa3e c633 95bc 6b84 2e3f
000003b0: db32 283d 154b bb3d e010 7c3d 693f 243c
000003c0: b340 68be 4ec6 c4bc ebd4 b13e f015 fc3d
000003d0: 4915 a63e 5fb0 e6bc 567c a23c dac2 41bf
000003e0: 3b0f 8fbc 4820 8f3e 1c35 073f d6f4 34bd
000003f0: ba42 823e 7328 4abf 56ca a3bb 15a1 553e

fc1.bias f4 [64]
-0.13350753 -0.48498344 0.2668794 0.31262514 0.6638946 -0.49034795 -0.24798293 0.8522763
-0.23422459 0.80502707 -0.37360683 0.8527929 0.54511786 0.7790065 0.016380183 -0.19597848
-0.31167528 -0.24523336 0.441166 0.09542274 -0.740797 -0.86119246 0.4107522 0.34931108
0.45609537 -0.6795229 -0.49360114 -0.2750599 0.8700875 -0.49486572 -0.30110025 1.1023387
-0.050296944 -0.032000314 -0.6459941 0.73016584 -0.5516894 -0.5916357 0.14014076 0.5951625
0.42707574 -0.33236688 -0.016777035 -0.17723362 -0.95003337 -0.6318859 0.123656996 0.3852901
0.05209284 0.29051375 0.07108868 0.8604493 -0.030193845 0.059697725 -0.35901323 0.25337672
0.31102005 -0.039417874 -0.7539634 0.49163154 -0.3801223 0.06305253 -0.6733033 0.6151692
00000000: 33b6 08be c04f f8be 6ba4 883e 6710 a03e
00000010: fff4 293f e30e fbbe 3def 7dbe c82e 5a3f
00000020: 92d8 6fbe 4116 4e3f 6549 bfbe a350 5a3f
00000030: d88c 0b3f f86c 473f bc2f 863c 95ae 48be
00000040: e793 9fbe 741e 7bbe 83e0 e13e ff6c c33d
00000050: dfa4 3dbf 1c77 5cbf 1d4e d23e e7d8 b23e
00000060: 5585 e93e 36f5 2dbf 4ab9 fcbe a7d4 8cbe
00000070: 0ebe 5e3f 0a5f fdbe d029 9abe 6f19 8d3f
00000080: 2b04 4ebd c312 03bd df5f 25bf 26ec 3a3f
00000090: 843b 0dbf 7075 17bf 0f81 0f3e 925c 183f
000000a0: aca9 da3e fe2b aabe fe6f 89bc bb7c 35be
000000b0: 6335 73bf 46c3 21bf e13f fd3d be44 c53e
000000c0: 4d5f 553d 38be 943e f196 913d 6846 5c3f
000000d0: 1559 f7bc 9a85 743d 95d0 b7be 98ba 813e
000000e0: 053e 9f3e a374 21bd bf03 41bf 21b7 fb3e
000000f0: 649f c2be af21 813d 9b5d 2cbf bb7b 1d3f

fc2.weight f4 [64, 64]
-0.11351121 0.39392284 0.12918413 0.19595242 0.19752271 0.6957836 0.37572753 0.15876092
0.17453584 0.22648175 -0.08446826 0.098640405 0.18883096 0.24616377 0.24089892 0.27066842
0.102834046 0.14044683 0.14361952 0.073906966 1.0496173 0.69286275 0.26537636 0.049374603
0.30497554 0.053628065 0.48085305 0.4371156 0.07105518 0.10997175 0.4203446 -0.2812039
0.20653181 0.1143513 0.46121755 0.19040866 -0.08479815 0.35968763 0.23112276 0.09681549
0.10914378 0.39706025 0.15957808 0.115419194 2.332327 0.7449663 0.15533715 0.22713184
-0.009588436 -0.023963217 -0.025124108 -0.02517644 0.21776387 0.017464336 0.28536314 0.22132698
0.18861157 -0.11227379 2.2422967 -0.087126434 -0.17430942 0.013354765 0.018113598 -0.05209839
-0.019857602 0.319601 0.24404049 0.08408301 0.10277752 0.71748394 0.3058392 0.24279235
0.08712585 0.023012737 0.03793463 0.08368478 0.0039763055 0.100564316 0.21402924 0.18495503
0.014890358 0.28693354 0.14026433 -0.091186635 0.95038146 0.5105343 0.16875756 0.16431458
0.20080253 0.11174247 0.50330913 0.30335304 0.15576796 0.24269393 0.3542177 -0.17331518
0.21133558 0.16178827 0.3794177 0.32537708 -0.29191267 0.50837564 0.2623417 0.10459921
0.24536306 0.3844784 0.05369239 0.25321907 2.3313396 0.74562466 0.22906062 0.17189787
0.061110977 -0.14744781 -0.16743922 -0.018215043 0.20672324 0.11311389 0.36742035 0.12667356
0.08332307 -0.09711649 2.0268376 -0.053086203 -0.15398614 0.11025399 0.2567807 0.068630815
0.053550303 0.45283353 0.25948074 0.19589122 0.07958066 0.65591896 0.28738454 0.32682917
0.26441345 0.109175794 -0.014519486 0.07308505 0.035255447 0.13594736 0.034160495 0.26950714
0.11017756 0.2569429 0.06785743 -0.05463885 0.90595675 0.5592767 0.0800785 0.116096094
0.32729173 -0.05618113 0.56006515 0.24860983 0.15952903 0.16056384 0.3816547 -0.19679542
0.30095798 0.33718675 0.28991467 0.0842066 -0.0833899 0.46046737 0.31568578 0.113149434
0.27744263 0.38827875 0.040476225 0.25359198 2.3403292 0.6760939 0.012413313 0.13396885
0.035870362 0.020631393 -0.121211 0.05209622 0.16629037 0.0059852693 0.36484447 0.19415884
0.2471446 0.073560126 2.0511272 -0.06281291 -0.14779459 0.17053477 0.14532045 0.063087896
0.10437462 0.2876139 0.0961642 0.19711034 0.1539497 0.57049483 0.18010424 0.25503543
0.21737164 0.2535318 -0.033097018 0.17134048 0.13816336 0.27276698 0.06808105 0.2752954
-0.07279483 0.06795337 0.11449141 0.062859245 1.0820532 0.6713909 0.28207502 0.13892624
0.22399823 -0.045325708 0.49821746 0.2223686 0.056656323 0.07809066 0.2808109 -0.23109543
0.32081023 0.16359523 0.3233234 0.22763148 -0.08703127 0.4546978 0.23909967 0.09394418
0.25444242 0.3331139 0.17705734 0.09711873 2.3521693 0.8472107 0.1435362 0.24643746
0.039954137 -0.10732241 -0.19822733 -0.12344071 0.33613446 -0.03516035 0.26322106 0.120205425
0.18883146 0.085910514 2.1813226 -0.01240191 -0.16190404 0.13839684 0.1637838 -0.037019733
00000000: 9178 e8bd 41b0 c93e d848 043e c0a7 483e
00000010: 6543 4a3e e01e 323f 5c5f c03e 3992 223e
00000020: 86b9 323e d5ea 673e b2fd acbd fb03 ca3d
00000030: e75c 413e 5b12 7c3e 35ae 763e 0d95 8a3e
00000040: a89a d23d 4bd1 0f3e ff10 133e 895c 973d
00000050: dc59 863f 745f 313f 69df 873e 063d 4a3d
00000060: c125 9c3e 1aa9 5b3d 5f32 f63e 9ecd df3e
00000070: 6185 913d de38 e13d 6837 d73e f5f9 8fbe
00000080: 137d 533e 0431 ea3d b524 ec3e 7dfa 423e
00000090: a7aa adbd fa28 b83e 72ab 6c3e 3347 c63d
000000a0: c686 df3d 7b4b cb3e 7068 233e e660 ec3d
000000b0: d844 1540 1db6 3e3f b410 1f3e 4095 683e
000000c0: d118 1dbc 824e c4bc 13d1 cdbc d23e cebc
000000d0: 7efd 5e3e 5e11 8f3c 1e1b 923e 8aa3 623e
000000e0: 6423 413e cdef e5bd ca81 0f40 586f b2bd
000000f0: 2b7e 32be f2cd 5a3c f862 943c 1f65 55bd
00000100: 69ac a2bc bea2 a33e c0e5 793e b733 ac3d
00000110: 057d d23d 07ad 373f f596 9c3e 8f9e 783e
00000120: 0a6f b23d 3585 bc3c 5861 1b3d ed62 ab3d
00000130: ab4b 823b aaf4 cd3d 7b2a 5b3e da64 3d3e
00000140: b0f6 733c f4e8 923e 74a1 0f3e 0fc0 babd
00000150: 334c 733f 60b2 023f c8ce 2c3e 1542 283e
00000160: 2e9f 4d3e 3cd9 e43d ded8 003f 1751 9b3e
00000170: a381 1f3e c284 783e 065c b53e 8979 31be
00000180: 5b68 583e d3ab 253e 0943 c23e d397 a63e
00000190: 9475 95be e824 023f a751 863e 1c38 d63d
000001a0: 7440 7b3e 5ada c43e 8dec 5b3d eea5 813e
000001b0: ab34 1540 42e1 3e3f de8e 6a3e ff05 303e
000001c0: 814f 7a3d 8ffc 16be 3075 2bbe b737 95bc
000001d0: 42af 533e 41a8 e73d 851e bc3e b7b6 013e
000001e0: 49a5 aa3d 03e5 c6bd b5b7 0140 eb70 59bd
000001f0: 8bae 1dbe d8cc e13d c378 833e 508e 8c3d
00000200: 9057 5b3d ccd9 e73e a9da 843e b597 483e
00000210: 2ffb a23d 4eea 273f 1124 933e 2756 a73e
00000220: 3361 873e 8f97 df3d 23e3 6dbc 9dad 953d
00000230: 0468 103d c935 0b3e e0eb 0b3d d7fc 893e
00000240: c6a4 e13d 058e 833e d6f8 8a3d fdcc 5fbd
00000250: c8ec 673f c22c 0f3f 3200 a43d cac3 ed3d
00000260: c892 a73e 2f1e 66bd 6e60 0f3f 9393 7e3e
00000270: 945b 233e d96a 243e 3f68 c33e bd84 49be
00000280: 2a17 9a3e bea3 ac3e b26f 943e 8374 ac3d
00000290: 53c8 aabd 61c2 eb3e 91a1 a13e e4ba e73d
000002a0: f60c 8e3e 79cc c63e 66ca 253d cfd6 813e
000002b0: f4c7 1540 7d14 2d3f 3561 4b3c 212f 093e
000002c0: cdec 123d 2b03 a93c 793d f8bd d962 553d
000002d0: 0648 2a3e 1420 c43b e5cc ba3e 93d1 463e
000002e0: 7913 7d3e b1a6 963d ab45 0340 0ea4 80bd
000002f0: 7757 17be aba0 2e3e e2ce 143e 3a34 813d
00000300: 5cc2 d53d 2142 933e bcf1 c43d 4bd7 493e
00000310: fda4 1d3e f30b 123f 3f6d 383e 0194 823e
00000320: ac96 5e3e ecce 813e bd90 07bd e173 2f3e
00000330: b27a 0d3e 1da8 8b3e 146e 8b3d 85f3 8c3e
00000340: 7515 95bd 232b 8b3d 797a ea3d 59bc 803d
00000350: b880 8a3f 46e0 2b3f 236c 903e ae42 0e3e
00000360: cb5f 653e 73a7 39bd 5c16 ff3e 98b4 633e
00000370: 7610 683d ffed 9f3d 72c6 8f3e 48a4 6cbe
00000380: 3d41 a43e 8285 273e a58a a53e 3a18 693e
00000390: 733d b2bd 26ce e83e 8bd6 743e ce65 c03d
000003a0: 4746 823e e88d aa3e 854e 353e 2fe6 c63d
000003b0: f189 1640 cde2 583f 27fb 123e 1a5a 7c3e
000003c0: f3a6 233d dacb dbbd 1bfc 4abe 7cce fcbd
000003d0: d119 ac3e 4d04 10bd e9c4 863e 432e f63d
000003e0: 095d 413e daf1 af3d ca9a 0b40 6131 4bbc
000003f0: 2cca 25be e7b7 0d3e f1b6 273e 01a2 17bd

fc2.bias f4 [64]
0.13414238 0.1240566 0.07798542 0.11116519 -0.1887181 0.15750341 0.1396599 -0.16106184
-0.12435746 0.06586331 0.23351271 0.21605678 0.17709191 0.18665326 0.18628359 0.07483927
0.019978378 -0.1632135 -0.013657029 0.24741171 0.2607037 0.19759275 0.17985387 0.042540785
0.1016367 0.23970813 0.032427978 0.27580392 -0.07259446 0.1037349 0.0011549589 -0.019038834
0.11254409 0.022164391 -0.049083643 0.008360921 -0.016860263 0.48612502 0.06379994 0.97115475
0.08454932 0.044161092 0.21051274 -0.015281094 0.03744035 0.06441521 0.052745994 0.232224
0.16219735 -0.06493789 0.1700072 0.0077743293 -0.16572386 -0.078809276 0.060197104 0.22918738
0.15419464 0.2410511 0.19996662 0.045216385 0.27064845 0.15174592 0.095335715 0.042618483
00000000: 9f5c 093e 6311 fe3d d2b6 9f3d 93aa e33d
00000010: 513f 41be 9348 213e 0103 0f3e 65ed 24be
00000020: 20af febd 58e3 863d f51d 6f3e fd3d 5d3e
00000030: 9557 353e 0822 3f3e 20c1 3e3e 5545 993d
00000040: b2a9 a33c 7121 27be bbc1 5fbc 7f59 7d3e
00000050: f57a 853e c155 4a3e 9d2b 383e 3f3f 2e3d
00000060: e726 d03d 0c76 753e 33d3 043d 2c36 8d3e
00000070: 67ac 94bd f772 d43d fd61 973a 54f7 9bbc
00000080: 847d e63d 1992 b53c ee0b 49bd 3ffc 083c
00000090: 891e 8abc 61e5 f83e 8ba9 823d 999d 783f
000000a0: 3228 ad3d 43e2 343d a790 573e 8e5d 7abc
000000b0: 0d5b 193d 1fec 833d 2f0c 583d 21cc 6d3e
000000c0: 1017 263e 28fe 84bd 5e16 2e3e cdbf fe3b
000000d0: 84b3 29be c266 a1bd 3d91 763d 19b0 6a3e
000000e0: 33e5 1d3e 19d6 763e 0dc4 4c3e d134 393d
000000f0: 6f92 8a3e 4863 1b3e 5f3f c33d b890 2e3d

fc3.weight f4 [1, 64]
0.3453986 0.33457562 0.3144896 0.33589128 -0.3879523 0.33371443 0.38303655 -1.819825
-1.0236148 0.41644135 0.4109728 0.32681435 0.3416974 0.34546837 0.3852823 0.3928518
-1.5936744 -0.5091472 -1.1244452 0.314857 -1.2740307 0.35220486 0.45616546 0.40721637
0.39514923 0.308801 0.45267546 0.3568512 -0.8758333 0.42114705 -0.09862329 -0.7285892
0.31068656 -1.0507609 -0.8547342 -0.8723362 -0.7204413 0.9238075 -0.7914472 1.3314372
-1.8484809 0.32344407 0.3813964 -0.7586788 -1.7605892 0.4042616 0.42170525 0.30102003
0.32566953 -1.1719376 -0.90891784 -1.2051302 -1.905579 -0.50634694 0.3086068 0.33016643
0.37427863 -1.1696775 0.39371026 0.3450578 0.305613 0.4236331 -1.7976613 0.32634953
00000000: 16d8 b03e 7f4d ab3e c804 a13e f1f9 ab3e
00000010: afa1 c6be 9edc aa3e 5e1d c43e 07f0 e8bf
00000020: cf05 83bf cd37 d53e 076b d23e 3654 a73e
00000030: f6f2 ae3e 3be1 b03e b943 c53e df23 c93e
00000040: 86fd cbbf 7957 02bf d2ed 8fbf f034 a13e
00000050: 7013 a3bf 3254 b43e 858e e93e aa7e d03e
00000060: 0051 ca3e 2a1b 9e3e 14c5 e73e 33b5 b63e
00000070: 9c36 60bf 96a0 d73e 02fb c9bd d284 3abf
00000080: 4f12 9f3e 557f 86bf dccf 5abf 6d51 5fbf
00000090: d76e 38bf a67e 6c3f 499c 4abf 896c aa3f
000000a0: 069b ecbf 769a a53e 6446 c33e c638 42bf
000000b0: fd5a e1bf 60fb ce3e c0e9 d73e 4c1f 9a3e
000000c0: 28be a63e 0d02 96bf d7ae 68bf b541 9abf
000000d0: 03ea f3bf f49f 01bf b601 9e3e 930b a93e
000000e0: 73a1 bf3e feb7 95bf 6494 c93e 6aab b03e
000000f0: 4f79 9c3e 70e6 d83e c419 e6bf 4917 a73e
