best_model.pth (torch, 21350 bytes, 5 tensors)

fc1.weight f4 [64, 6]
0.20556575 -0.5793369 -0.6648533 0.38484526 -0.04916779 -0.3419119 -0.10712965 -0.9171125
-0.18119079 -0.7901552 0.20636742 0.12658477 0.08599462 -0.84773207 0.50484246 0.7668488
-0.05199773 -0.3614328 0.48461068 -0.3929512 0.2835521 -0.010360067 0.050979834 -0.21912
-0.05953928 0.605728 0.031524096 0.16477455 -0.10647972 -0.14181496 -0.25760314 0.65063864
-0.17147684 0.14166228 0.65312195 0.2197612 0.495578 -0.41193527 0.27146935 0.06876128
-0.058463722 -0.41920158 -0.09921691 -0.16344896 -0.43198308 0.45040148 -0.43483287 0.55903655
0.27439433 0.10420167 0.35924515 0.84215546 0.45922032 0.17673656 -0.20256662 -0.9110876
-0.17368472 -0.794623 -0.3882703 0.40200254 0.27055225 0.10958931 0.025845548 -0.20106034
0.28815025 -0.109674975 0.04627374 0.5089013 0.14831969 0.19991477 0.00794763 0.5089128
-0.0054936954 -0.23093195 -0.11019574 0.18098255 -0.041833542 0.07087423 0.12163938 0.2015392
0.08232979 -0.09097349 -0.42376664 -0.3446239 0.3350977 0.53421104 0.28757864 -0.25397614
-0.045044966 -0.30597803 -0.16173859 0.3746253 0.06661933 -0.39056545 0.09316232 -0.040209536
0.21196133 -0.41938907 -0.1734949 -1.0918523 0.22997148 0.12690571 -0.66478956 0.55586183
-0.72282743 -0.08276941 -0.20923334 0.148608 -0.40220377 0.30855265 -0.13721831 0.4212573
0.53336555 -0.6187515 -0.2866525 -1.1273633 0.31056407 0.5978073 -0.017722536 -0.11068274
0.23464134 0.59443307 0.20387612 -0.26365182 -0.3921076 -0.049600538 -0.0636152 -0.15928079
0.112865284 -0.09605843 0.36781052 0.23285653 -0.15483181 0.24974464 -0.336317 -0.049394164
0.73708004 0.18504196 0.3734114 -0.3057325 0.0261754 0.022802966 -0.03142334 -0.2297542
0.37388176 0.74412286 -0.37233007 0.040516544 -0.40614128 0.2850861 0.3489228 0.6081418
-0.14571597 -0.3244783 0.7387555 0.52208084 -0.22577928 0.66043574 0.027055621 -0.26103058
-0.22487167 -0.15549341 -0.0019804384 -0.31353375 0.015035964 -0.09691648 0.059658792 0.20415764
-0.15637402 0.13544255 0.124489486 0.37596515 -0.6134813 0.035802662 -0.21934472 0.35833004
0.033821505 -0.49564338 -0.21898386 -0.02252383 -0.10486604 -0.8928771 0.43382406 -0.57519484
-0.3882773 -0.2879724 -0.4198521 0.60783297 0.09489778 0.23915744 -0.19170688 -0.04790149
0.22644375 0.45852256 -0.24350713 0.27079993 0.4191918 -0.263617 0.06629067 -0.052177336
0.6559268 0.8034209 0.16930106 0.35141465 0.06888204 -0.35242477 0.22022706 0.20060122
-0.109002836 -0.12915687 -0.009220606 0.78570473 -0.054385986 -0.0065233693 -0.0665817 0.102846034
0.036847446 -0.4553785 -0.20297332 -0.22038661 0.33276492 -0.11517739 0.22162928 -0.81277
0.07764942 0.6638307 -0.20238641 0.2791416 -0.09100396 -0.19727318 0.66540575 0.062330753
0.91663784 0.76559883 -0.06818289 -0.972593 -0.43131524 -0.8187547 -0.53431934 -0.32787156
-0.30456084 0.39652437 -0.04945297 -0.41172764 0.016891276 -0.13919991 0.12956867 0.08078698
0.05254876 0.3685512 -0.46630737 -0.12290134 0.3177944 -0.04886292 0.2500641 0.10552238
00000000: d47f 523e 6c4f 14bf d333 2abf 700a c53e
00000010: 2a64 49bd 140f afbe ca66 dbbd e3c7 6abf
00000020: 148a 39be 9c47 4abf fb51 533e 709f 013e
00000030: f31d b03d f804 59bf 5b3d 013f 3450 443f
00000040: 92fb 54bd b80d b9be e41e f83e e630 c9be
00000050: be2d 913e 45bd 29bc 3bd0 503d fe60 60be
00000060: 76df 73bd fd10 1b3f 691f 013d a9ba 283e
00000070: 0a12 dabd f137 11be 8fe4 83be 4190 263f
00000080: a097 2fbe eb0f 113e 0033 273f 1409 613e
00000090: 66bc fd3e 2ee9 d2be 08fe 8a3e b7d2 8c3d
000000a0: a877 6fbd 97a1 d6be 3c32 cbbd 2a5f 27be
000000b0: e32c ddbe 069b e63e 6aa2 debe 051d 0f3f
000000c0: 6a7d 8c3e af67 d53d fbee b73e 8097 573f
000000d0: ed1e eb3e 6efa 343e a06d 4fbe 093d 69bf
000000e0: 68da 31be 6a6c 4bbf 5dcb c6be 47d3 cd3e
000000f0: d385 8a3e 5c70 e03d 0bba d33c c3e2 4dbe
00000100: 6e88 933e 469d e0bd 8889 3d3d 5b47 023f
00000110: 1ee1 173e 75b6 4c3e c736 023c 1c48 023f
00000120: 7504 b4bb 6d79 6cbe 4eae e1bd 7d53 393e
00000130: a659 2bbd 8226 913d 111e f93d 4b60 4e3e
00000140: 859c a83d 4f50 babd f1f7 d8be 8b72 b0be
00000150: ed91 ab3e 0ec2 083f 823d 933e 2909 82be
00000160: 1281 38bd 27a9 9cbe cd9e 25be e3ce bf3e
00000170: b76f 883d 32f8 c7be e3cb be3d c1b2 24bd
00000180: 640c 593e 2aba d6be a6a8 31be d1c1 8bbf
00000190: a57d 6b3e 92f3 013e a62f 2abf f64c 0e3f
000001a0: 380b 39bf 0283 a9bd 4441 56be b22c 183e
000001b0: a7ed cdbe 9dfa 9d3e f582 0cbe 09af d73e
000001c0: a58a 083f 8066 1ebf 1ec4 92be 714d 90bf
000001d0: 4102 9f3e e609 193f da2e 91bc a2ad e2bd
000001e0: d245 703e c42c 183f e7c4 503e 5ffd 86be
000001f0: 54c2 c8be ef29 4bbd b048 82bd 811a 23be
00000200: ea25 e73d 48ba c4bd a951 bc3e f171 6e3e
00000210: 3b8c 1ebe 0fbd 7f3e be31 acbe 8951 4abd
00000220: 47b1 3c3f a47b 3d3e c72f bf3e f888 9cbe
00000230: cb6d d63c 49cd ba3c c3b5 00bd af44 6bbe
00000240: 6e6d bf3e d67e 3e3f 0ca2 bebe adf4 253d
00000250: c0f1 cfbe cef6 913e 02a6 b23e 2eaf 1b3f
00000260: 9136 15be 0522 a6be 151f 3d3f 17a7 053f
00000270: af32 67be 5112 293f c0a3 dd3c cda5 85be
00000280: c244 66be aa39 1fbe 3eca 01bb 7f87 a0be
00000290: 6759 763c 267c c6bd c75c 743d b30e 513e
000002a0: 8320 20be 74b1 0a3e 58f4 fe3d 817e c03e
000002b0: 1c0d 1dbf d0a5 123d e79b 60be 0977 b73e
000002c0: 6b88 0a3d f8c4 fdbe 4e3d 60be e583 b8bc
000002d0: 02c4 d6bd 9893 64bf 301e de3e f83f 13bf
000002e0: 48cc c6be 1e71 93be dbf6 d6be f19a 1b3f
000002f0: c459 c23d b0e5 743e cf4e 44be 5a34 44bd
00000300: dfe0 673e 78c3 ea3e ef59 79be 4aa6 8a3e
00000310: 4fa0 d63e cff8 86be 67c3 873d e7b7 55bd
00000320: d2ea 273f feac 4d3f 425d 2d3e 9fec b33e
00000330: 0712 8d3d 0571 b4be 3483 613e 686a 4d3e
00000340: e13c dfbd b341 04be 0612 17bc f223 493f
00000350: d7c3 5ebd fdc1 d5bb fd5b 88bd f1a0 d23d
00000360: 59ed 163d 5f27 e9be 3dd8 4fbe 07ad 61be
00000370: 2a60 aa3e 20e2 ebbd c9f2 623e b211 50bf
00000380: a906 9f3d cff0 293f 623e 4fbe a6eb 8e3e
00000390: 4960 babd fb01 4abe 0858 2a3f 884e 7f3d
000003a0: c7a8 6a3f 49fe 433f 79a3 8bbd dbfb 78bf
000003b0: 5ad5 dcbe e899 51bf 27c9 08bf c8de a7be
000003c0: 66ef 9bbe 3e05 cb3e 338f 4abd f7cd d2be
000003d0: 935f 8a3c 6c8a 0ebe a6ad 043e a573 a53d
000003e0: 5e3d 573d beb2 bc3e d7bf eebe b3b3 fbbd
000003f0: f3b5 a23e 7c24 48bd 6708 803e 1e1c d83d

fc1.bias f4 [64]
0.4755673 -0.47768053 0.10555453 0.6391299 0.69675815 1.2685713 0.6330487 1.0445669
-0.22593021 -0.03309883 -1.2501446 0.044118214 0.69687086 0.7955877 0.22454606 -0.22760743
0.25346038 -0.8468375 0.32149932 -0.0245724 0.25792933 -0.7797393 1.2950464 0.5663522
0.12997085 -0.077793136 0.24227811 -0.93247026 0.051354274 -0.28450415 0.38380614 0.08732571
0.7317678 -0.28254068 0.66923964 0.7144807 -1.126709 0.2513415 -0.49580187 0.05739743
-0.23090576 -0.93071455 0.7474677 -0.66609716 0.48494446 -1.0782611 0.49611342 -0.3364169
0.5694321 0.036892276 0.34244058 0.5872551 0.7078649 0.7626993 0.13626449 1.179515
-1.0301567 -1.0159799 0.29377133 1.12331 0.61811566 -0.27899587 -1.245542 -0.73093635
00000000: 8f7d f33e 8b92 f4be f92c d83d 049e 233f
00000010: be5e 323f 8b60 a23f 7b0f 223f 5eb4 853f
00000020: 405a 67be a492 07bd bd04 a0bf 4db5 343d
00000030: 2166 323f a3ab 4b3f 67ef 653e ec11 69be
00000040: 8fc5 813e 58ca 58bf 8f9b a43e 0f4c c9bc
00000050: 500f 843e ff9c 47bf 15c4 a53f 75fc 103f
00000060: 1417 053e 0252 9fbd c117 783e 5fb6 6ebf
00000070: dc58 523d 87aa 91be 3d82 c43e d2d7 b23d
00000080: 2255 3b3f 2ca9 90be 4a53 2b3f 35e8 363f
00000090: 0038 90bf d5af 803e bed9 fdbe 9119 6b3d
000000a0: 8f72 6cbe 4f43 6ebf 0b5a 3f3f 5885 2abf
000000b0: a44a f83e 7604 8abf 9402 fe3e d63e acbe
000000c0: 4dc6 113f 5b1c 173d 5f54 af3e 5a56 163f
000000d0: a236 353f 4340 433f eb88 0b3e 59fa 963f
000000e0: 2ddc 83bf a10b 82bf 3269 963e 9fc8 8f3f
000000f0: d43c 1e3f 8cd8 8ebe ec6d 9fbf a51e 3bbf

fc2.weight f4 [64, 64]
-0.622888 0.3864075 -0.048211884 -0.16208945 -0.26141754 -0.33095938 -0.07354518 -0.24776874
-0.038727194 0.3125085 0.18682092 0.15268184 -0.08889575 -0.42255765 0.4395264 0.9767606
0.11540473 -0.22416316 -0.34614396 0.28082088 0.36706176 0.15105581 -0.034074847 -0.06972992
-0.52207047 -0.10980488 0.18203112 0.25664338 0.018756809 1.1671026 0.12212707 0.16736662
-0.8245941 0.24194494 0.057130404 -0.63131607 -0.011531676 0.079643376 0.32992092 0.086786576
0.5039711 -0.10266438 -0.17782752 -0.14766222 -0.183876 -0.27103153 -0.5275965 1.3714571
-0.3034551 0.25904152 0.08415621 -0.3159409 0.1749017 -0.44970998 0.026455851 -0.21588172
0.07547427 0.006614182 0.7334483 -0.2344929 -0.32251054 0.27366975 0.109659225 0.4592649
0.25993448 -0.07066064 0.5109348 0.314051 -0.29489806 -0.19620448 0.13206762 -0.39531386
0.07479767 0.17975964 -0.2335686 -0.36555594 0.28788713 0.14727625 -0.30805516 -0.3075025
0.42722717 -0.015793277 -0.18733914 0.77797323 -0.237734 -0.24425602 0.19802774 0.06680707
0.083993144 -0.30709743 -0.0483215 -0.26886758 -0.1601495 -0.25079244 0.25030512 -0.18899593
-0.083412305 -0.009785898 0.23417862 -0.689761 -0.20516308 0.38860318 0.08704802 0.120529816
-0.2522051 -0.17981733 0.15157339 0.084648885 0.13478218 -0.23700686 -0.9914379 -0.08661433
-0.7656517 0.40654638 0.1848764 -0.507708 0.2805335 0.09638535 0.23226953 -0.3762231
-0.1995621 0.059900444 -0.08252112 0.18833409 -0.47916403 0.4198435 -0.14416005 0.42214423
-0.2654484 0.18587963 0.30390957 0.08007097 -0.9263704 -0.80818856 -0.029523851 -0.54705954
-0.27030736 0.2771229 0.5387163 -0.38861004 -0.16461675 -0.015040467 -0.32937083 0.03434181
0.21383788 0.18088755 -0.1344822 0.6414416 -0.041609276 0.4194199 -0.74505544 0.08044381
-0.19023713 -0.13369751 -0.12300577 0.46142882 0.010578488 0.19193411 0.3368182 -0.20972973
-1.0773087 0.07621405 -0.15309125 -3.2303488 0.5440377 -0.07865335 -0.020632638 0.39144248
0.20393649 0.34266204 -0.13622351 0.502398 -0.16495286 0.5035417 -0.51921576 0.11555281
-0.8464382 0.33872145 0.46968848 -1.60851 0.0111163175 -0.38874325 0.010488501 -0.41811967
0.4132263 0.44438538 -0.51426995 -0.5576995 -1.6425272 0.47076488 0.47041538 0.47451854
-0.39897388 0.49734753 -0.9795415 -0.04280978 -0.51850414 -0.3322252 -0.3746458 -0.40435073
-0.32964623 0.32680392 0.29454586 -0.12994207 -0.25431165 -0.24270655 0.98700714 1.6373453
0.17821522 -0.025784224 -0.6089052 0.26358214 0.829493 0.44983238 -0.16622034 -0.29041842
-0.42207366 0.400604 0.13908407 0.21945861 -0.20423204 2.1534226 0.03507942 -0.14865345
-0.51316077 -0.1824676 -0.321313 -0.5530286 0.34883007 0.21511589 -0.07434606 0.082947366
0.80384624 -0.23127227 -0.23821086 0.088276766 -0.9485488 0.052474752 -0.052995976 2.2811623
-0.51410806 0.2510171 0.1169305 -0.5331905 0.25898874 -0.49538964 0.05244184 -0.14178646
0.21309197 0.090870276 0.29317632 -0.20358276 -0.3521222 0.40971982 0.2439745 0.73246217
00000000: 9775 1fbf 34d7 c53e d379 45bd c7fa 25be
00000010: 85d8 85be 8273 a9be db9e 96bd 17b7 7dbe
00000020: 68a0 1ebd 1d01 a03e fc4d 3f3e a158 1c3e
00000030: fa0e b6bd 7a59 d8be 9b09 e13e fc0c 7a3f
00000040: 5159 ec3d 078b 65be c839 b1be c1c7 8f3e
00000050: 85ef bb3e 60ae 1a3e 1192 0bbd 8fce 8ebd
00000060: 69a6 05bf 62e1 e0bd 5e66 3a3e c366 833e
00000070: e1a7 993c 9e63 953f c21d fa3d 2862 2b3e
00000080: 9918 53bf 6ac0 773e 9201 6a3d ee9d 21bf
00000090: 5bef 3cbc 111c a33d 65eb a83e 29bd b13d
000000a0: 4004 013f b441 d2bd 6b18 36be c434 17be
000000b0: fd49 3cbe a5c4 8abe 9010 07bf e88b af3f
000000c0: 785e 9bbe 17a1 843e 175a ac3d 01c3 a1be
000000d0: 6e19 333e 6340 e6be f1b9 d83c 1910 5dbe
000000e0: 4192 9a3d c8bb d83b 45c3 3b3f e81e 70be
000000f0: 1a20 a5be 711e 8c3e 0495 e03d c524 eb3e
00000100: 2216 853e 87b6 90bd a0cc 023f 4bcb a03e
00000110: e1fc 96be d4e9 48be bc3c 073e 9466 cabe
00000120: 852f 993d e912 383e 9b2c 6fbe 262a bbbe
00000130: f165 933e 96cf 163e 68b9 9dbe f870 9dbe
00000140: 85bd da3e e760 81bc d5d5 3fbe 4129 473f
00000150: 8b70 73be 401e 7abe c9c7 4a3e 25d2 883d
00000160: 9904 ac3d e03b 9dbe c4ec 45bd 03a9 89be
00000170: 3bfe 23be de67 80be fe27 803e 2688 41be
00000180: 12d4 aabd 0855 20bc 85cc 6f3e 2d94 30bf
00000190: 4516 52be fff6 c63e 3b46 b23d 56d8 f63d
000001a0: 0721 81be 0922 38be 0e36 1b3e 655c ad3d
000001b0: 5704 0a3e edb1 72be e0ce 7dbf db62 b1bd
000001c0: c001 44bf d926 d03e 3d50 3d3e 27f9 01bf
000001d0: 16a2 8f3e af65 c53d 10d8 6d3e 50a0 c0be
000001e0: 025a 4cbe 2b5a 753d d500 a9bd a7da 403e
000001f0: fd54 f5be baf5 d63e b19e 13be 4a23 d83e
00000200: dae8 87be 3b57 3e3e 099a 9b3e 40fc a33d
00000210: 9c26 6dbf 72e5 4ebf 01dc f1bc 180c 0cbf
00000220: ba65 8abe 0ee3 8d3e 50e9 093f e5f7 c6be
00000230: 4b91 28be 4a6c 76bc 4ba3 a8be ffa9 0c3d
00000240: 51f8 5a3e 963a 393e b4b5 09be 8435 243f
00000250: 7d6e 2abd 35be d63e f4bb 3ebf b9bf a43d
00000260: 86cd 42be 00e8 08be 73ea fbbd 6640 ec3e
00000270: 6551 2d3c 608a 443e 6f73 ac3e 64c3 56be
00000280: 40e5 89bf 1d16 9c3d f4c3 1cbe 09be 4ec0
00000290: 0e46 0b3f 0215 a1bd c705 a9bc 266b c83e
000002a0: bad4 503e 6671 af3e 2d7e 0bbe 289d 003f
000002b0: 67e9 28be 1ce8 003f 53eb 04bf f4a6 ec3d
000002c0: 2db0 58bf e66c ad3e 027b f03e a8e3 cdbf
000002d0: 3721 363c 5b09 c7be f6d7 2b3c c813 d6be
000002e0: 6692 d33e 7b86 e33e 32a7 03bf 65c5 0ebf
000002f0: 553e d2bf 1808 f13e 49da f03e 18f4 f23e
00000300: 4e46 ccbe 56a4 fe3e 3bc3 7abf 4f59 2fbd
00000310: b0bc 04bf 6c19 aabe 93d1 bfbe 0f07 cfbe
00000320: 64c7 a8be d852 a73e b7ce 963e 890f 05be
00000330: 2335 82be 1188 78be 80ac 7c3f 8894 d13f
00000340: 0d7e 363e 7039 d3bc 36e1 1bbf 3df4 863e
00000350: a759 543f 6e50 e63e aa35 2abe b9b1 94be
00000360: 0a1a d8be f81b cd3e 0e6c 0e3e c2b9 603e
00000370: 3422 51be add1 0940 70af 0f3d 9c38 18be
00000380: 815e 03bf c9d8 3abe 2383 a4be 4893 0dbf
00000390: db99 b23e 5747 5c3e bf42 98bd 4fe0 a93d
000003a0: dec8 4d3f a3d2 6cbe 8ced 73be 73ca b43d
000003b0: 18d4 72bf c4ef 563d 4f12 59bd 90fe 1140
000003c0: 969c 03bf 5085 803e 4279 ef3d 2c7f 08bf
000003d0: 2c9a 843e b6a3 fdbe 41cd 563d 7830 11be
000003e0: c834 5a3e 321a ba3d 351b 963e 0078 50be
000003f0: 5c49 b4be ccc6 d13e 74d4 793e a482 3b3f

fc2.bias f4 [64]
-0.2583329 0.05039837 -0.41553006 -0.13766688 -0.44326 -0.3836052 -0.4245438 0.24966504
-0.23299971 -0.4745211 0.3333104 -0.08434131 0.08193919 -0.034441236 -0.3543287 -0.17159681
-0.30649766 -0.12524982 -0.25995976 0.32792008 0.11133387 -0.5361593 0.46448976 -0.5124902
-0.42611256 -0.40723056 -0.22262631 -0.2896296 -0.63780224 -0.2401817 -0.45278114 -0.40164915
-0.3374188 0.21654724 -0.44008183 -0.3850099 -0.4345559 -0.17835915 -0.14414518 -0.46610448
-0.08387064 -0.25050932 -0.21921138 -0.4089814 -0.6277491 0.17852145 -0.32303798 -0.27054465
-0.40619195 -0.42911458 -0.28928763 0.10867423 -0.42069745 -0.35095212 0.30694193 -0.44255075
-0.22452441 0.2896303 -0.40050828 -0.19985107 -0.19004674 -0.14996617 -0.26673603 -0.11190158
00000000: 3644 84be 856e 4e3d 5bc0 d4be 8cf8 0cbe
00000010: faf2 e2be e767 c4be ce5d d9be 31a8 7f3e
00000020: 7a97 6ebe 6ef4 f2be a9a7 aa3e 23bb acbd
00000030: bccf a73d 4112 0dbd 926a b5be 13b7 2fbe
00000040: 43ed 9cbe 7d41 00be 7219 85be 24e5 a73e
00000050: 0303 e43d bc41 09bf 9ad1 ed3e 8f32 03bf
00000060: 6d2b dabe 8680 d0be 27f8 63be 554a 94be
00000070: 0247 23bf 31f2 75be eed2 e7be f5a4 cdbe
00000080: 28c2 acbe 8fbe 5d3e 6852 e1be 0520 c5be
00000090: 1c7e debe c8a3 36be cb9a 13be 3fa5 eebe
000000a0: 5fc4 abbd c242 80be f378 60be 0366 d1be
000000b0: 2ab4 20bf 54ce 363e 3c65 a5be d484 8abe
000000c0: 64f8 cfbe e8b4 dbbe 821d 94be 9890 de3d
000000d0: a865 d7be ffaf b3be 7e27 9d3e 0396 e2be
000000e0: bae9 65be 6c4a 943e 6c0f cdbe c2a5 4cbe
000000f0: 9d9b 42be bb90 19be a091 88be a82c e5bd

fc3.weight f4 [1, 64]
-0.32911655 0.26538667 0.95776993 -0.675563 -0.41035834 -0.3451814 1.1329952 0.36591107
0.6462798 -0.40176126 0.39896065 -0.6143705 0.52270585 0.2798694 -0.37897116 0.3373862
-0.4495073 -0.40540433 -0.5924916 0.4193512 0.3223066 -0.959569 0.4306933 0.9293394
0.6005967 -0.4634701 0.35734576 -0.5547089 1.1188179 -0.3318424 1.1368227 0.8958243
-0.6841601 0.25024626 -0.70915836 -0.51245785 -0.42940596 -0.43171477 -0.84806824 1.1904949
0.29005283 0.56227005 -0.7305268 -0.9882855 1.174857 0.31518522 -0.34334695 -0.3302706
-0.37702432 -0.42199406 -0.3721939 0.38034457 1.0419542 -0.336465 0.4665642 0.8785208
-0.35955167 0.27920642 0.8856932 0.33455092 0.5476009 -0.50303745 -0.7243198 -0.3547086
00000000: f781 a8be c3e0 873e 6930 753f b2f1 2cbf
00000010: 7d1a d2be 9ebb b0be fd05 913f b258 bb3e
00000020: 9872 253f a7b3 cdbe 9244 cc3e 6347 1dbf
00000030: 0dd0 053f 0b4b 8f3e 8208 c2be e2bd ac3e
00000040: d225 e6be 2891 cfbe 88ad 17bf 33b5 d63e
00000050: 5f05 a53e 50a6 75bf d583 dc3e 30e9 6d3f
00000060: b5c0 193f f44b edbe 06f6 b63e 6701 0ebf
00000070: 6d35 8f3f 3fe7 a9be 6883 913f be54 653f
00000080: 1e25 2fbf 4720 803e 678b 35bf 7030 03bf
00000090: 19db dbbe b809 ddbe 001b 59bf 2362 983f
000000a0: ce81 943e eef0 0f3f ce03 3bbf 4700 7dbf
000000b0: b761 963f f55f a13e 2ccb afbe 3a19 a9be
000000c0: 5509 c1be 9b0f d8be 3390 bebe 86bc c23e
000000d0: c15e 853f 2445 acbe 81e1 ee3e bde6 603f
000000e0: 2817 b8be 25f4 8e3e cabc 623f 424a ab3e
000000f0: 932f 0c3f 10c7 00bf 066d 39bf 5e9c b5be
